model/keypoint_classifier/keypoint_classifier.tflite (tflite, 7312 bytes, 6 tensors)

sequential_3/dense_10/BiasAdd/ReadVariableOp/resource f4 [10]
000000 a0 3c 17 3f 42 2e fe be 69 25 ef 3e e6 e9 91 3f
       0.5907688 -0.49644667 0.4670823 1.1399505
000010 2e 9c 7c 3f 60 cf 00 3f 5d e5 29 bf 78 71 13 bd
       0.9867581 0.5031643 -0.66365606 -0.035996884
000020 da e6 69 3e eb 83 d6 3f
       0.22841969 1.6759008

sequential_3/dense_11/BiasAdd/ReadVariableOp/resource f4 [25]
000000 1f 0f 77 3f e3 33 e4 3e 7c 04 a7 3e 69 24 52 3e
       0.9650745 0.44570836 0.3262061 0.20521702
000010 e6 3a 10 bf d0 b3 70 3d 2f 3a a7 3e b8 30 11 3f
       -0.5633987 0.058765233 0.32661578 0.56714964
000020 2e 37 c1 3e ef 01 9a be e7 a8 29 bc a6 59 52 bf
       0.3773741 -0.300796 -0.010355211 -0.8216804
000030 e0 e5 b5 3e bd 72 0f be c4 2c 84 3d 0b 64 46 bf
       0.35526943 -0.14008613 0.06453851 -0.77496403
000040 61 00 b0 bf 92 9b fc 3d 75 8d c7 3d 4a 40 22 be
       -1.3750116 0.1233436 0.09743778 -0.15844837
000050 ad ef fd 3d a0 9b 67 3e 33 ed 8b be 04 31 98 be
       0.1239923 0.2261796 -0.27329406 -0.29724896
000060 f4 f3 95 be
       -0.29287684

sequential_3/dense_9/BiasAdd/ReadVariableOp/resource f4 [20]
000000 b8 47 5e 3d 4d 3c 95 bf 13 5c 24 bf d4 f7 27 bf
       0.054267615 -1.1659027 -0.64202994 -0.6561253
000010 ce 95 0c bf 39 4f 24 bf b1 2e cf 3d dc cc 1c bf
       -0.54916084 -0.64183384 0.101163276 -0.6125009
000020 99 24 27 bf 29 1c d1 3e ea 50 68 bf 78 bd 8f bf
       -0.6529022 0.40841797 -0.90748465 -1.1229696
000030 45 82 35 3e 2c b0 63 bd fc a6 0e bf 21 38 c6 3e
       0.17725475 -0.055587932 -0.5572355 0.38714698
000040 ab 59 8b bc 32 31 2b bf 41 a1 71 bd 0e 31 6c 3f
       -0.01701053 -0.6687194 -0.058991674 0.9226235

sequential_3/dense_10/MatMul f4 [10, 20]
000000 d4 4c 9d 3f b6 21 09 bf f3 b0 0a bc 4b bb 32 3f
       1.2289071 -0.53567064 -0.00846504 0.69817036
000010 8a 25 26 be 21 f5 88 3d f9 d2 d6 3e b2 5d 91 be
       -0.16225258 0.0668738 0.41957834 -0.28391796
000020 97 a6 56 3e 76 bc 46 3e 7f d0 0b bf 1e bc 31 3e
       0.20961986 0.1940783 -0.54615015 0.17356917
000030 a2 74 c9 3f 5d 97 6e 3f 67 d6 08 3e 5a af 37 3f
       1.5738719 0.9319971 0.13363038 0.7175194
000040 1a ef eb 3f ca 9d 00 3e b1 19 23 bd 53 b0 4f 3f
       1.8432343 0.12560192 -0.039819423 0.81128424
000050 fa f0 b8 3e 49 a0 88 3f 7c ff a4 3f 44 11 d0 3f
       0.3612135 1.0673915 1.2890468 1.6255269
000060 85 2a 9c 3e 97 86 35 3e 9f 1c c6 3d 92 c0 cd 3d
       0.3050119 0.17727123 0.09673428 0.100464955
000070 75 18 47 3f e7 10 ef 3d 4c 66 8e 3d 6d 92 53 3f
       0.77771693 0.11673146 0.06953105 0.82645303
000080 a2 56 5f 3f 0b fe 85 bd 0e b3 8a 3e ee 85 30 bd
       0.87241566 -0.065425955 0.27089733 -0.043096475
000090 1c 8e 32 3f 01 d3 b4 3e 03 0c b6 3d 5b dc c1 be
       0.6974809 0.35317233 0.0888901 -0.3786343
0000a0 7e 72 33 bf 84 55 97 3f cc 0e ea 3d 8e 10 81 3e
       -0.70096576 1.1822972 0.114286035 0.25207943
0000b0 8b 6d 80 3f 7d 47 af bf 2d 9d 5f 3e 27 9d e2 3e
       1.003343 -1.3693691 0.21837302 0.44260523
0000c0 65 2b da be cd be c6 bf 64 99 46 3f d5 ec c7 3e
       -0.42611232 -1.5526978 0.77577806 0.39047876
0000d0 61 0e 94 3e e6 4d 27 3c 54 bf 9d bf db ae fb 3e
       0.2891722 0.0102114435 -1.2324014 0.49156842
0000e0 2b e9 15 3f f0 a1 2e 3e bb 07 08 3b 32 1b a9 3d
       0.5855891 0.17053962 0.002075656 0.0825714
0000f0 03 c4 82 3e 34 2b 49 bf 8b c1 0b 3e 95 2e dd 3e
       0.2554017 -0.7858155 0.1364805 0.43199602
000100 91 60 38 be ea 76 85 bc 47 8f df bf 8f 29 b2 3c
       -0.18005587 -0.016292054 -1.74656 0.021748332
000110 2e 63 9a bf b8 ce 36 3f e0 21 b3 be c8 bc 34 3e
       -1.2061517 0.7140918 -0.34986782 0.1765014
000120 79 57 0d 3f e0 33 5f be f3 1f 57 3e c4 10 77 bf
       0.552116 -0.21797132 0.21008281 -0.9650996
000130 d2 d2 40 3f 02 2f e2 3e 88 90 e2 3d b8 de 49 3f
       0.75321686 0.4417649 0.110627234 0.78855467
000140 7b 7e 2e 3f a3 97 7b bf 9a 55 96 3f a2 1c 2c 3f
       0.68161744 -0.98278254 1.1744874 0.6723119
000150 c5 0c 61 be eb 56 e3 3e a8 28 11 3d aa 11 94 3e
       -0.21977527 0.4440225 0.035439163 0.28919727
000160 c5 e0 73 3e 0a 81 db 3e b1 3a 03 3e 2b 0e 0b 3e
       0.23816212 0.42871886 0.12815358 0.13579623
000170 94 17 1a be 57 9c cf 3e 51 d5 cd bd db 79 96 3e
       -0.15048057 0.40548965 -0.100504525 0.29389843
000180 36 3f cb 3e 4c b1 4d 3f c1 9a d6 3c 09 cd 23 bf
       0.39696664 0.8034866 0.02619684 -0.63984734
000190 c0 2e 8d bf 5f cf 0a 3f b5 e7 d0 3d f6 16 dc 3e
       -1.1029892 0.54222673 0.102004446 0.42986268
0001a0 a2 34 a0 bc 92 93 a0 3f b5 ec 4d be 2b a0 d9 bd
       -0.019556347 1.2545035 -0.20109828 -0.10626253
0001b0 90 b7 11 3e 4d 2f 62 3f a9 70 c9 3f 71 94 c9 3e
       0.1423018 0.88353425 1.5737506 0.39371064
0001c0 e1 5c e1 3e 86 8a 8e bf 6b 87 00 3f e0 b9 ce 3d
       0.44016173 -1.1136024 0.5020663 0.100940466
0001d0 3d a8 ff 3e 42 56 a2 3e aa 4b 13 be 1f 5e 35 be
       0.49933043 0.31706434 -0.14384332 -0.17711686
0001e0 b8 5e b9 be 54 90 23 3e 6d 9a 02 3e aa 08 00 be
       -0.36205077 0.15973026 0.12754221 -0.12503305
0001f0 cc e2 53 3f a5 9e 19 3e f9 7b df ba ca cc b9 3f
       0.8276794 0.15001924 -0.0017050497 1.4515622
000200 6f 28 b1 be 95 c1 2b 3f c0 99 b1 3f 46 3c 44 be
       -0.3460116 0.6709226 1.3875046 -0.19163617
000210 9c f8 98 be 56 5b 72 3f 77 a5 e4 3f 94 ca c5 3c
       -0.29877174 0.9467062 1.7862996 0.024144448
000220 e5 5f 76 3e 51 0c ce 3e f5 78 1a 3f df 98 b0 3d
       0.24060018 0.40243772 0.60340816 0.08622908
000230 e4 ba 0b 3f 6d a8 1d 3f 9e 68 6a bd fd 26 29 be
       0.5458205 0.6158512 -0.057228677 -0.16518779
000240 88 de 89 3f 64 8c 27 3f f7 f0 8f 3f 2b d8 33 3f
       1.0771036 0.65448594 1.1245412 0.7025172
000250 be bb d6 be 2c 7d b2 3e 4d dd 82 be d9 8a de 3e
       -0.4194011 0.34861124 -0.25559464 0.43465307
000260 e6 d3 7e 3c 4a 5b d8 3e db c3 89 3f 74 86 2e 3f
       0.01555345 0.42257148 1.0762895 0.6817391
000270 3e 29 91 bd 8b 70 13 3d 5d b0 86 3f 77 ee 86 3f
       -0.070879444 0.035996 1.0522572 1.0541524
000280 47 6f 82 bc 68 3c 52 3e 85 6b 1b 3f 1e eb 29 be
       -0.015922202 0.20530856 0.60710937 -0.16593596
000290 94 54 a3 3e 16 24 7a bf 6c bb da 3e ef 00 cb 3d
       0.31900465 -0.9771131 0.42721117 0.099122874
0002a0 6e fc bb 3f 7e 5f 07 be 68 b2 c7 3d 05 e4 43 3f
       1.468641 -0.13220021 0.09750825 0.76519805
0002b0 43 01 81 3e 4f dd 09 3f 40 9f 67 3e db df 03 3f
       0.25196275 0.53853315 0.22619343 0.5151345
0002c0 96 61 dd be c8 8a 8d 3e e8 e4 25 3f 88 c2 c6 bd
       -0.43238515 0.27644944 0.6480241 -0.09705073
0002d0 6b 03 a8 3f fc 25 42 3f 2d 7a 8d be ad 35 b6 be
       1.3126043 0.7583921 -0.27632275 -0.35587826
0002e0 ae 7b 94 3e b2 77 fb 3e 65 f2 46 3b 9f 9e c0 3e
       0.2900061 0.49114758 0.003035688 0.37621018
0002f0 1e 36 0b 3e 10 91 04 3f cd e7 3d be e2 57 88 3f
       0.13594863 0.5178385 -0.18545456 1.065182
000300 18 99 90 be d6 51 4a bf 92 73 8e bd 49 66 be bd
       -0.282418 -0.7903112 -0.06955637 -0.09296853
000310 27 8e 94 be 02 cb da 3e 11 79 35 3c ac f2 2c 3f
       -0.29014704 0.42733008 0.011076228 0.6755779

sequential_3/dense_11/MatMul f4 [25, 10]
000000 21 4d ee be 28 9d 8f bf 43 d4 30 bf 72 c5 f8 3d
       -0.4654322 -1.1219835 -0.69073886 0.12147035
000010 68 83 2e 3e 85 2a 5f be 5a 97 8f bf 82 70 35 3e
       0.17042315 -0.21793564 -1.1218064 0.177187
000020 cf f6 bf 3d d2 1b 3b 3f d8 f4 1e 3f 32 c3 75 bf
       0.09373247 0.73089325 0.6209235 -0.9600097
000030 66 3e 7b bf 51 9e 56 3f 5f 86 67 3c e0 9f 77 3d
       -0.9814209 0.8383532 0.014131158 0.060455203
000040 ad 3d be bf b1 a1 4f bf da 23 67 bf ee 26 12 3e
       -1.4862572 -0.81106097 -0.9028908 0.14272663
000050 62 3e 96 3e 13 2c 59 3e d8 37 87 bf 55 d3 d6 3e
       0.2934447 0.21208219 -1.0563917 0.4195811
000060 89 fb d1 3e 00 d0 c1 3d 40 f7 94 bf f1 0d 68 bf
       0.4101222 0.09463501 -1.1637955 -0.9064627
000070 e6 64 7a bf 07 eb b2 bd 5e c4 e5 3e 27 2f dd 3d
       -0.9781021 -0.08736234 0.4487638 0.10800009
000080 b4 a3 6d bf c5 f5 80 be d4 2f 24 3f 53 c0 93 3e
       -0.92827916 -0.25187507 0.6413548 0.2885767
000090 7c 7d 6c be 92 9a 4c bf 3b 54 01 be 11 11 de be
       -0.23094743 -0.79923356 -0.12629788 -0.43372396
0000a0 6d ff d0 3e c7 54 0e 3f d9 3b 1b bf cc d0 dc be
       0.40819874 0.5559811 -0.60638195 -0.4312805
0000b0 7c ea 06 3e 96 74 12 3e 2c 5d 96 3e ab 97 db be
       0.13175386 0.14302287 0.2936796 -0.4288915
0000c0 27 b5 9b bd df 26 bd bd 45 9a c2 bf ea 87 bb 3e
       -0.076029114 -0.0923593 -1.5203329 0.36627132
0000d0 74 eb 12 bf 7d 27 bd 3d e5 2d 48 be 2f 1f 68 3d
       -0.5739052 0.092360474 -0.19548757 0.056670364
0000e0 db fe 2a 3f f3 56 b3 be 06 76 49 3f ad d4 aa bd
       0.6679513 -0.35027274 0.78695714 -0.08341346
0000f0 5d 11 cc be 1d 74 0f 3f c6 17 30 3f 4f b5 20 3e
       -0.39856997 0.5603655 0.68786275 0.15694164
000100 bf 06 3e bd 80 5c c9 bc 78 6b f4 3e d7 21 11 bf
       -0.046393152 -0.02458024 0.47738242 -0.5669226
000110 b0 2e 47 bf ee 2e bc be b1 c0 5d be 38 b1 00 bf
       -0.77805614 -0.36754555 -0.21655537 -0.50270414
000120 3b a7 53 bf 8f 27 fe be 6e 64 53 bf b1 17 bc be
       -0.8267705 -0.49639556 -0.8257512 -0.36736825
000130 cc de 9d 3e 3d bb e1 3e 37 a4 17 be f5 a9 62 3f
       0.30834043 0.44088164 -0.14808737 0.88540584
000140 f6 91 4e bf d3 b4 df bd c7 8b 72 bd 2f e9 0c bf
       -0.8069147 -0.10923161 -0.059215333 -0.5504331
000150 f5 62 f5 be e8 81 9a bf 29 07 be bd c5 5e 0e 3f
       -0.4792706 -1.2070894 -0.092787094 0.55613357
000160 c2 a8 5b bd b2 36 13 3f 3b dc 3e bf 51 0f e3 be
       -0.053627737 0.57505333 -0.74554795 -0.44347623
000170 cd db 4d bf 88 88 18 bf 73 ea 7a bf a9 95 4d bf
       -0.80413514 -0.5958333 -0.9801399 -0.8030649
000180 ac 88 3c bf 89 90 53 bf e5 f0 33 bf 8f 3d f9 be
       -0.73646045 -0.8264242 -0.7028945 -0.48679778
000190 60 88 9f be 74 b4 f4 bd e5 ea 5a be ea df 02 bf
       -0.31158733 -0.11948481 -0.21378668 -0.51122916
0001a0 98 1a 36 3f e4 1a 98 bf 2c 88 4f 3c b2 99 26 3e
       0.7113433 -1.1883206 0.012666743 0.16269568
0001b0 86 4e d6 3e 9a 5b 49 bb 5d 22 00 be 3b c7 ab bf
       0.41856784 -0.0030724765 -0.12513109 -1.3420175
0001c0 08 8b 59 3c 4b be 44 be 60 8b 87 bf 6c ba 0a 3f
       0.013277777 -0.19213216 -1.0589409 0.5419071
0001d0 0e fd b0 3e 37 2d 46 3f b7 ae a6 be e1 b3 95 be
       0.34568065 0.7741274 -0.32555172 -0.292388
0001e0 ce a1 c0 3d 93 63 11 3e 75 81 45 3f 4e ac 02 bf
       0.09405862 0.14198141 0.7715066 -0.51044166
0001f0 ac de bc 3e 6c 36 fa 3e 8f b2 43 bf 9b c5 8e bf
       0.36888635 0.48869646 -0.76444334 -1.1154054
000200 e9 3e ed 3c d4 eb 20 bf 86 d9 25 3e d4 19 c1 3d
       0.028960662 -0.62859845 0.1619626 0.094287544
000210 16 2f 32 3e 72 dd df bc 70 c1 56 3e 82 32 5f bf
       0.17400774 -0.027327273 0.20972228 -0.87186444
000220 81 c1 fe 3e 2a f2 b8 3e de e3 62 bd 14 9b cf bf
       0.49757007 0.36122257 -0.055393092 -1.6219201
000230 0a 30 53 3e 20 92 b9 3e f6 05 02 3e a4 a0 3e 3e
       0.20623794 0.36244297 0.12697586 0.18615967
000240 23 10 a3 3e 5c dc 00 bf cb e8 a2 bf 25 31 90 bf
       0.3184825 -0.5033624 -1.2727293 -1.1264998
000250 50 07 a8 bc 6f d2 ec bd c9 3d 10 3f ac ab e6 bd
       -0.0205113 -0.115635745 0.56344277 -0.112632126
000260 93 11 2a bf 0f 0b 98 be 33 80 b9 bd 68 3c 33 bf
       -0.66433066 -0.29695937 -0.09057655 -0.7001405
000270 b3 2b 31 3e ba 37 2b 3e 5f 7a 12 3f 24 1d ba bf
       0.17301826 0.16720477 0.57217973 -1.4540143
000280 7f 63 ab be 56 20 05 3f fb e0 b7 3e 80 0a 28 3d
       -0.33474347 0.52002466 0.35913834 0.04102564
000290 e9 46 47 bd 3a 21 ab 3e b0 4a ad 3e ed 37 28 3e
       -0.04865161 0.33423787 0.33846045 0.16427584
0002a0 1b 65 55 be 19 91 ca be 58 8f 5e bf 08 cf d5 3e
       -0.2083935 -0.39563826 -0.86937475 0.41759515
0002b0 78 15 05 bf 84 a4 a8 be f0 cc c3 bd 75 8d fe 3e
       -0.51985884 -0.32938015 -0.09560573 0.49717298
0002c0 02 f9 aa 3e e5 fb 3d bf 57 17 66 3d 2e 8b d1 3e
       0.33393103 -0.74212486 0.056174602 0.40926498
0002d0 cb d6 ff 3e b6 da 22 be 16 8a 7a be 1a 11 aa 3e
       0.49968562 -0.15903744 -0.24466738 0.33216172
0002e0 c8 d2 aa be d8 13 b0 be cc 6a d0 3e 43 9a ad bd
       -0.33363938 -0.3439014 0.4070648 -0.08476689
0002f0 8b 9f cd be fb 35 22 3e 81 a7 05 be fb 51 06 3f
       -0.40160784 0.15840904 -0.13052179 0.5246884
000300 7b cb f0 3e 6f c0 db be 4b 42 88 be eb d8 19 bf
       0.47030243 -0.42920253 -0.26613078 -0.60096616
000310 85 a9 87 bf e2 b6 4b bd 93 64 1e 3f 15 8e c7 be
       -1.0598608 -0.049734958 0.61872214 -0.38975587
000320 bc 86 b4 bf e3 48 10 bf c7 3a 48 be 35 b3 2f 3e
       -1.4103618 -0.56361216 -0.19553672 0.17158206
000330 04 89 1b 3f e2 7c bf 3e da 1b 98 3e 61 d1 e2 be
       0.60755944 0.37399966 0.2970875 -0.44300368
000340 94 78 f5 be c5 b5 c5 bd cb c5 6b bd 0f f4 c4 bf
       -0.47943556 -0.096538104 -0.057561677 -1.5386981
000350 be 9d 0e 3e 46 d1 96 be 44 00 3f bf c4 1b 86 bf
       0.13927361 -0.29456538 -0.7460978 -1.0477223
000360 58 1c e4 3e 14 ff 0b 3f 30 d8 9f bd 35 83 81 be
       0.44552875 0.54686093 -0.07804906 -0.25295416
000370 f1 fd 61 bf 53 b8 4b bf 4c c7 55 be 47 7e f1 be
       -0.8827811 -0.7957813 -0.20876807 -0.47166654
000380 3c d4 03 be a9 82 a5 bf 0e d0 e7 be 32 d3 35 bf
       -0.1287393 -1.2930499 -0.4527592 -0.71025383
000390 ef f3 20 bf 38 b1 81 bf 11 a5 d4 be b5 95 92 be
       -0.62872213 -1.0132208 -0.41532186 -0.28629842
0003a0 62 b7 8e bf 0d 2b 85 bf 0c 7e 26 bf 2d 8e 48 bf
       -1.1149714 -1.0403763 -0.6503608 -0.78341943
0003b0 53 70 27 bf 95 1f 7c bf 26 6b 6b bf 9c f1 e7 be
       -0.6540577 -0.9848569 -0.9196037 -0.4530152
0003c0 77 da 6e bf 46 59 7c be 9f 80 07 bf 6d 3a 05 bf
       -0.933021 -0.2464343 -0.52930635 -0.52042276
0003d0 33 0c 95 be c7 31 56 bf d9 ec 00 bf 13 f2 69 be
       -0.2911087 -0.83669704 -0.503614 -0.2284625
0003e0 20 63 dd be 90 65 93 bf
       -0.4323969 -1.151537

sequential_3/dense_9/MatMul f4 [20, 42]
000000 bc 92 42 3e 22 ab 93 be 03 c8 90 3d a9 d9 36 3f
       0.19001287 -0.288415 0.07069399 0.71425873
000010 97 b1 b7 bd 46 8f 84 3e 2f 36 eb bd ec 12 3c 3e
       -0.089694194 0.2589056 -0.11484944 0.18366593
000020 e5 d9 f9 bd 83 01 4b 3e e2 e2 c2 bd 80 8f 0d 3e
       -0.12199763 0.19824795 -0.09515931 0.13824272
000030 56 a5 e7 3a 4d 09 72 3d 68 9f 8e 3d 43 1b 84 3d
       0.0017673175 0.0590909 0.06963998 0.06450512
000040 73 2f ef 3c c1 29 c9 bf 60 c2 50 be 02 bf 0b 3e
       0.02919743 -1.5715867 -0.20386648 0.13647082
000050 7e 8e 8d 3d 70 36 cd 3d 68 fd 29 3e 5b dc d9 3d
       0.06911944 0.10020149 0.16600573 0.106377326
000060 61 05 5b 3e 18 57 db 3d cb b7 79 be d7 9c 0d 3e
       0.2138877 0.10709971 -0.24386518 0.13829361
000070 25 5a 85 bc 5f 95 c5 3d c9 70 e4 3c 96 80 f4 3d
       -0.016278336 0.09647631 0.027885811 0.11938588
000080 2c 05 f4 3d 1d d5 cd 3d ab 1c 5f be 14 bb e2 3d
       0.11915049 0.10050414 -0.2178828 0.110708386
000090 c0 d3 2b bd 7f d6 c7 3d 48 7e 2f 3d d1 e1 d1 3d
       -0.041949987 0.09757709 0.04284504 0.10248149
0000a0 e0 d3 04 3c 98 e9 9e 3d e0 11 3a bd d8 49 fb 3d
       0.008107156 0.07759398 -0.045427203 0.12269944
0000b0 e8 79 da be 81 26 79 bf c5 97 95 be a5 27 92 be
       -0.42671132 -0.9732438 -0.29217353 -0.2854587
0000c0 01 35 0f bf 56 d7 8d bd 7d 58 e1 be a9 28 f8 3c
       -0.5594025 -0.06925838 -0.44012824 0.030292826
0000d0 f6 ef 22 3f 60 9d 3f be 3e 1c b3 3e 85 1f 71 bd
       0.636474 -0.18712378 0.34982485 -0.05886795
0000e0 bb ea 7f bd a6 20 70 3d 7c 32 55 be 23 0b 59 3d
       -0.062479716 0.058624886 -0.2082004 0.052989136
0000f0 f0 ad 94 3f fb 09 2c be 18 2f 13 3e 7f a9 cd bd
       1.1615582 -0.16800682 0.14373434 -0.100420944
000100 6c 2b 88 be ed 3b c6 bc 4c 12 cb be dc d5 57 bd
       -0.26595628 -0.024198497 -0.39662397 -0.052694187
000110 8f 75 7c 3f 43 8a 73 be b0 d3 01 bd 57 02 d5 bd
       0.9861688 -0.23783211 -0.03169602 -0.10400837
000120 a0 e0 93 be 95 7e 57 bd 62 60 28 be 8d b2 8e bd
       -0.28882313 -0.052610952 -0.16443017 -0.069676496
000130 0d de 58 3e 05 d9 aa be d5 9f 37 be 09 30 4f be
       0.21178456 -0.33368698 -0.17932065 -0.20233168
000140 9e 92 7d be ce 26 62 bd 1b 20 9c bd 10 c2 72 3d
       -0.24762961 -0.05521279 -0.07623311 0.059267104
000150 cf 8a 7d be 22 86 71 be da 18 df 3e 05 15 28 3f
       -0.24759983 -0.23586324 0.43573648 0.65657073
000160 da a4 bb bc 2e 0b b8 3e dd 07 46 be ec 59 7d 3e
       -0.022905756 0.3594603 -0.19338937 0.24741334
000170 0f b5 bc be df ff 04 3e d8 7e 24 3c bf 0b 2a 3e
       -0.36856887 0.12988232 0.0100400075 0.16606043
000180 0a f7 d6 3d bd 78 e8 3d 0c 9e 40 3d e9 2c a0 3d
       0.10496338 0.11351154 0.047025725 0.07821066
000190 8e b0 fa bc 2e 2b 16 3d 83 2b 33 be 7a 46 1f 3e
       -0.030601766 0.036662273 -0.17497067 0.15554228
0001a0 9f a5 35 3e 8c 98 88 3d f3 e1 45 bd 9d fc b2 bc
       0.1773896 0.06669721 -0.048311185 -0.021848971
0001b0 ca ec 4b be 53 b7 f1 b9 34 96 bd be af d3 09 3e
       -0.19914547 -0.0004610369 -0.37028658 0.13459657
0001c0 d2 fd 48 3d e0 a6 92 b9 e1 9a 8f 3b d5 ee ce be
       0.049070187 -0.00027971622 0.0043824767 -0.4041659
0001d0 ce 28 63 3c 80 b3 0d bf 31 fc 4b be 30 ba 5b 3e
       0.013864709 -0.5535202 -0.19920422 0.21457744
0001e0 58 2e 4e 3d 99 4e aa bd c6 e8 5e 3e 73 3f 12 bf
       0.050337166 -0.083157726 0.21768484 -0.57128066
0001f0 aa 3a cf 3d 4d f3 e5 bf 9e 14 83 3e e4 d8 10 3e
       0.10118611 -1.7964875 0.25601667 0.14145237
000200 a5 61 2e be c4 9b 42 3f a3 cb 93 bc 2f 0b 74 3e
       -0.17029436 0.7601893 -0.018041437 0.23832391
000210 a4 7a 3e be bc 88 0c 3e ea 0a 9b be d6 cf 89 3c
       -0.18601471 0.13724035 -0.30281764 0.016822737
000220 80 32 8f 3d 8e 0a 3e 3e f8 3a ce bb 9b d2 da 3d
       0.06992054 0.18558714 -0.0062936507 0.10684701
000230 c1 7f 90 3d 3d ed 86 bb 76 3c 58 bc db 41 a6 bd
       0.07055617 -0.0041176365 -0.013198009 -0.0811803
000240 e9 1f 31 bb b7 18 5d 3e b8 73 e0 3d 0f 16 12 3d
       -0.0027027077 0.21591459 0.109595716 0.035665568
000250 b0 c5 06 3d f8 06 13 be 40 62 80 3d 9e 3e 08 3e
       0.032903373 -0.14358127 0.0626874 0.13305137
000260 02 b2 45 be 77 f8 49 3e d1 25 4d 3b ae d5 08 3d
       -0.19306186 0.19723688 0.0031303058 0.033406906
000270 8b c3 05 3f d8 e1 40 bf cb f6 80 3f be 09 d3 bf
       0.522515 -0.7534461 1.0075315 -1.6487348
000280 eb a3 2a be 38 00 99 3e b2 fa 42 be 1a 59 03 3e
       -0.16664092 0.2988298 -0.19040945 0.12826958
000290 6b 85 fb bc 22 48 b7 bd dd 9d 0e bd 31 29 93 3d
       -0.030703267 -0.08949305 -0.03481852 0.07185591
0002a0 50 2b 57 be 70 6c 6d bd 9e c7 1c bf aa 4d b4 bf
       -0.21012616 -0.057964742 -0.6124209 -1.4086201
0002b0 9f 3b a7 be 19 1e d6 be 99 72 b4 be b4 fc 8f be
       -0.32662675 -0.41819838 -0.3524368 -0.28122485
0002c0 ae f6 79 bf da 69 97 be 71 a9 28 3f 50 28 24 3b
       -0.9764203 -0.29572946 0.6588355 0.0025048442
0002d0 d7 b5 c7 3e c1 e4 8f 3b 63 60 08 3e 5f 96 bf 3b
       0.3900592 0.0043912833 0.13318019 0.005846783
0002e0 5b ec 88 3d d8 88 35 3a 9b b1 77 3f d2 96 6b bd
       0.06685706 0.00069249934 0.9675538 -0.05751688
0002f0 7b e5 92 3e 98 10 ed 3c f6 83 2f bf 4c 83 38 bc
       0.28690705 0.028938577 -0.6856073 -0.011261772
000300 98 09 5d bf 14 bd 91 bb 5c 8e 45 3f 97 6e f6 3d
       -0.86342764 -0.0044475887 0.7717035 0.12032812
000310 19 6a 4b 3e 56 22 f6 3c 0a 16 0d bf 89 a7 4b bc
       0.19864692 0.03004567 -0.55111754 -0.01243008
000320 46 b2 69 bf 54 e1 e2 3b 93 e3 00 3f b0 68 83 3e
       -0.9128765 0.006923834 0.5034725 0.25665808
000330 26 3e 49 be f3 89 57 3e af ea 1c bf fa 74 47 3e
       -0.19652614 0.21048717 -0.612956 0.19478217
000340 04 4f 76 bf 9d c5 4f 3e 58 97 5c bd ae 95 3e 3e
       -0.9621432 0.20290227 -0.05385527 0.18611786
000350 80 68 9a 3f 4d 30 46 be 97 54 8a 3f 39 8b 2c be
       1.2063141 -0.19354363 1.0807065 -0.16849984
000360 4c c1 55 3f eb ce 67 3d 2c a6 9a 3e de 17 ed 3d
       0.8349807 0.056593817 0.30204904 0.11576818
000370 d0 69 23 3e 52 85 6d be 9b f1 2f 3f 38 e0 62 3d
       0.15958333 -0.23195389 0.68728036 0.055389613
000380 62 60 2f 3f b3 0b a9 3e 7e a5 ca 3e ec f4 a8 3e
       0.68506444 0.33016738 0.39579386 0.3299936
000390 76 76 1a 3e dc a5 ba be c8 6e 7b 3f f4 0c fe 3d
       0.15084252 -0.36454666 0.98215914 0.12404814
0003a0 a0 d4 76 3f 53 af 00 3f 1d 0d 98 3f 51 a6 d8 3e
       0.9641819 0.50267524 1.1879002 0.4231439
0003b0 69 d4 4d be 43 12 9c be 5d 2f 08 3f 74 ce d4 bb
       -0.2010056 -0.30482683 0.5319727 -0.0064943377
0003c0 8b 4c 8f 3f 9d 03 f3 bc c1 2d 92 3f 99 39 ef 3d
       1.1195234 -0.029664809 1.1420213 0.11680908
0003d0 6f 1f a5 be c2 f9 f4 be 5d ed 61 3e 89 61 04 be
       -0.32250544 -0.478468 0.22063203 -0.12927832
0003e0 1e 99 df 3e 2b 02 8b 3d 40 09 da 3e 76 24 25 3e
       0.43671507 0.06787523 0.42585182 0.1612719
0003f0 c6 13 7b be 98 5b 98 3e f8 c4 b7 bd 56 ef ac bd
       -0.24519262 0.2975738 -0.08973116 -0.08444087
